…
opt_level              : O2
cast_model_type        : torch.float16
patch_torch_functions  : False
keep_batchnorm_fp32    : True
master_weights         : True
loss_scale             : dynamic
Processing user overrides (additional kwargs that are not None)...
After processing overrides, optimization options are:
enabled                : True
opt_level              : O2
cast_model_type        : torch.float16
patch_torch_functions  : False
keep_batchnorm_fp32    : True
master_weights         : True
loss_scale             : dynamic
TransformerModel(
  (encoder): TransformerEncoder(
    (embed_tokens): Embedding(33712, 1024, padding_idx=1)
    (embed_positions): SinusoidalPositionalEmbedding()
    (layers): ModuleList(
      (0): TransformerEncoderLayer(
        (self_attn): MultiheadAttention(
          (out_proj): Linear(in_features=1024, out_features=1024, bias=False)
        )
        (fc1): Linear(in_features=1024, out_features=4096, bias=True)
        (fc2): Linear(in_features=4096, out_features=1024, bias=True)
        (maybe_ln1): MaybeLayerNorm(
          (ln): FusedLayerNorm(torch.Size([1024]), eps=1e-05, elementwise_affine=True)
        )
        (maybe_ln2): MaybeLayerNorm(
          (ln): FusedLayerNorm(torch.Size([1024]), eps=1e-05, elementwise_affine=True)
        )
      )
      (1): TransformerEncoderLayer(
        (self_attn): MultiheadAttention(
          (out_proj): Linear(in_features=1024, out_features=1024, bias=False)
        )
        (fc1): Linear(in_features=1024, out_features=4096, bias=True)
        (fc2): Linear(in_features=4096, out_features=1024, bias=True)
        (maybe_ln1): MaybeLayerNorm(
          (ln): FusedLayerNorm(torch.Size([1024]), eps=1e-05, elementwise_affine=True)
        )
        (maybe_ln2): MaybeLayerNorm(
          (ln): FusedLayerNorm(torch.Size([1024]), eps=1e-05, elementwise_affine=True)
        )
      )
      (2): TransformerEncoderLayer(
        (self_attn): MultiheadAttention(
          (out_proj): Linear(in_features=1024, out_features=1024, bias=False)
        )
        (fc1): Linear(in_features=1024, out_features=4096, bias=True)
        (fc2): Linear(in_features=4096, out_features=1024, bias=True)
        (maybe_ln1): MaybeLayerNorm(
          (ln): FusedLayerNorm(torch.Size([1024]), eps=1e-05, elementwise_affine=True)
        )
        (maybe_ln2): MaybeLayerNorm(
          (ln): FusedLayerNorm(torch.Size([1024]), eps=1e-05, elementwise_affine=True)
        )
      )
      (3): TransformerEncoderLayer(
        (self_attn): MultiheadAttention(
          (out_proj): Linear(in_features=1024, out_features=1024, bias=False)
        )
        (fc1): Linear(in_features=1024, out_features=4096, bias=True)
        (fc2): Linear(in_features=4096, out_features=1024, bias=True)
        (maybe_ln1): MaybeLayerNorm(
          (ln): FusedLayerNorm(torch.Size([1024]), eps=1e-05, elementwise_affine=True)
        )
        (maybe_ln2): MaybeLayerNorm(
          (ln): FusedLayerNorm(torch.Size([1024]), eps=1e-05, elementwise_affine=True)
        )
      )
      (4): TransformerEncoderLayer(
        (self_attn): MultiheadAttention(
          (out_proj): Linear(in_features=1024, out_features=1024, bias=False)
        )
        (fc1): Linear(in_features=1024, out_features=4096, bias=True)
        (fc2): Linear(in_features=4096, out_features=1024, bias=True)
        (maybe_ln1): MaybeLayerNorm(
          (ln): FusedLayerNorm(torch.Size([1024]), eps=1e-05, elementwise_affine=True)
        )
        (maybe_ln2): MaybeLayerNorm(
          (ln): FusedLayerNorm(torch.Size([1024]), eps=1e-05, elementwise_affine=True)
        )
      )
      (5): TransformerEncoderLayer(
        (self_attn): MultiheadAttention(
          (out_proj): Linear(in_features=1024, out_features=1024, bias=False)
        )
        (fc1): Linear(in_features=1024, out_features=4096, bias=True)
        (fc2): Linear(in_features=4096, out_features=1024, bias=True)
        (maybe_ln1): MaybeLayerNorm(
          (ln): FusedLayerNorm(torch.Size([1024]), eps=1e-05, elementwise_affine=True)
        )
        (maybe_ln2): MaybeLayerNorm(
          (ln): FusedLayerNorm(torch.Size([1024]), eps=1e-05, elementwise_affine=True)
        )
      )
    )
    (layer_norm): FusedLayerNorm(torch.Size([1024]), eps=1e-05, elementwise_affine=True)
  )
  (decoder): TransformerDecoder(
    (embed_tokens): Embedding(33712, 1024, padding_idx=1)
    (embed_positions): SinusoidalPositionalEmbedding()
    (layers): ModuleList(
      (0): TransformerDecoderLayer(
        (self_attn): MultiheadAttention(
          (out_proj): Linear(in_features=1024, out_features=1024, bias=False)
        )
        (self_attn_layer_norm): MaybeLayerNorm(
          (ln): FusedLayerNorm(torch.Size([1024]), eps=1e-05, elementwise_affine=True)
        )
        (encoder_attn): MultiheadAttention(
          (out_proj): Linear(in_features=1024, out_features=1024, bias=False)
        )
        (encoder_attn_layer_norm): MaybeLayerNorm(
          (ln): FusedLayerNorm(torch.Size([1024]), eps=1e-05, elementwise_affine=True)
        )
        (fc1): Linear(in_features=1024, out_features=4096, bias=True)
        (fc2): Linear(in_features=4096, out_features=1024, bias=True)
        (final_layer_norm): MaybeLayerNorm(
          (ln): FusedLayerNorm(torch.Size([1024]), eps=1e-05, elementwise_affine=True)
        )
      )
      (1): TransformerDecoderLayer(
        (self_attn): MultiheadAttention(
          (out_proj): Linear(in_features=1024, out_features=1024, bias=False)
        )
        (self_attn_layer_norm): MaybeLayerNorm(
          (ln): FusedLayerNorm(torch.Size([1024]), eps=1e-05, elementwise_affine=True)
        )
        (encoder_attn): MultiheadAttention(
          (out_proj): Linear(in_features=1024, out_features=1024, bias=False)
        )
        (encoder_attn_layer_norm): MaybeLayerNorm(
          (ln): FusedLayerNorm(torch.Size([1024]), eps=1e-05, elementwise_affine=True)
        )
        (fc1): Linear(in_features=1024, out_features=4096, bias=True)
        (fc2): Linear(in_features=4096, out_features=1024, bias=True)
        (final_layer_norm): MaybeLayerNorm(
          (ln): FusedLayerNorm(torch.Size([1024]), eps=1e-05, elementwise_affine=True)
        )
      )
      (2): TransformerDecoderLayer(
        (self_attn): MultiheadAttention(
          (out_proj): Linear(in_features=1024, out_features=1024, bias=False)
        )
        (self_attn_layer_norm): MaybeLayerNorm(
          (ln): FusedLayerNorm(torch.Size([1024]), eps=1e-05, elementwise_affine=True)
        )
        (encoder_attn): MultiheadAttention(
          (out_proj): Linear(in_features=1024, out_features=1024, bias=False)
        )
        (encoder_attn_layer_norm): MaybeLayerNorm(
          (ln): FusedLayerNorm(torch.Size([1024]), eps=1e-05, elementwise_affine=True)
        )
        (fc1): Linear(in_features=1024, out_features=4096, bias=True)
        (fc2): Linear(in_features=4096, out_features=1024, bias=True)
        (final_layer_norm): MaybeLayerNorm(
          (ln): FusedLayerNorm(torch.Size([1024]), eps=1e-05, elementwise_affine=True)
        )
      )
      (3): TransformerDecoderLayer(
        (self_attn): MultiheadAttention(
          (out_proj): Linear(in_features=1024, out_features=1024, bias=False)
        )
        (self_attn_layer_norm): MaybeLayerNorm(
          (ln): FusedLayerNorm(torch.Size([1024]), eps=1e-05, elementwise_affine=True)
        )
        (encoder_attn): MultiheadAttention(
          (out_proj): Linear(in_features=1024, out_features=1024, bias=False)
        )
        (encoder_attn_layer_norm): MaybeLayerNorm(
          (ln): FusedLayerNorm(torch.Size([1024]), eps=1e-05, elementwise_affine=True)
        )
        (fc1): Linear(in_features=1024, out_features=4096, bias=True)
        (fc2): Linear(in_features=4096, out_features=1024, bias=True)
        (final_layer_norm): MaybeLayerNorm(
          (ln): FusedLayerNorm(torch.Size([1024]), eps=1e-05, elementwise_affine=True)
        )
      )
      (4): TransformerDecoderLayer(
        (self_attn): MultiheadAttention(
          (out_proj): Linear(in_features=1024, out_features=1024, bias=False)
        )
        (self_attn_layer_norm): MaybeLayerNorm(
          (ln): FusedLayerNorm(torch.Size([1024]), eps=1e-05, elementwise_affine=True)
        )
        (encoder_attn): MultiheadAttention(
          (out_proj): Linear(in_features=1024, out_features=1024, bias=False)
        )
        (encoder_attn_layer_norm): MaybeLayerNorm(
          (ln): FusedLayerNorm(torch.Size([1024]), eps=1e-05, elementwise_affine=True)
        )
        (fc1): Linear(in_features=1024, out_features=4096, bias=True)
        (fc2): Linear(in_features=4096, out_features=1024, bias=True)
        (final_layer_norm): MaybeLayerNorm(
          (ln): FusedLayerNorm(torch.Size([1024]), eps=1e-05, elementwise_affine=True)
        )
      )
      (5): TransformerDecoderLayer(
        (self_attn): MultiheadAttention(
          (out_proj): Linear(in_features=1024, out_features=1024, bias=False)
        )
        (self_attn_layer_norm): MaybeLayerNorm(
          (ln): FusedLayerNorm(torch.Size([1024]), eps=1e-05, elementwise_affine=True)
        )
        (encoder_attn): MultiheadAttention(
          (out_proj): Linear(in_features=1024, out_features=1024, bias=False)
        )
        (encoder_attn_layer_norm): MaybeLayerNorm(
          (ln): FusedLayerNorm(torch.Size([1024]), eps=1e-05, elementwise_affine=True)
        )
        (fc1): Linear(in_features=1024, out_features=4096, bias=True)
        (fc2): Linear(in_features=4096, out_features=1024, bias=True)
        (final_layer_norm): MaybeLayerNorm(
          (ln): FusedLayerNorm(torch.Size([1024]), eps=1e-05, elementwise_affine=True)
        )
      )
    )
    (layer_norm): FusedLayerNorm(torch.Size([1024]), eps=1e-05, elementwise_affine=True)
  )
)
| model transformer_wmt_en_de_big_t2t, criterion LabelSmoothedCrossEntropyCriterion
| training on 8 GPUs
…
